saved_model/LSTM.pth (torch, 834242 bytes, 12 tensors)

stock_emb.weight f4 [2, 4]
0.0 0.0 0.0 0.0 -0.7174067 -0.35315022 0.6691857 -0.037997965
00000000: 0000 0000 0000 0000 0000 0000 0000 0000
00000010: f7a7 37bf 1bd0 b4be c14f 2b3f c1a3 1bbd

period_emb.weight f4 [14, 4]
0.0 0.0 0.0 0.0 1.558699 -0.6014333 0.5785954 1.1339424
1.3590695 -0.8748286 -1.0409001 -0.23707092 -0.10275414 -1.0645617 0.027961152 1.2208179
0.19400223 0.24879967 1.3610102 -0.76997185 -1.3982441 -0.36590406 0.34419584 -1.082728
1.125077 -0.7083375 0.24647346 0.2660811 0.45771867 1.2792428 -0.2393847 0.124810226
-1.1890987 -0.7011995 -1.3319329 0.37974358 -1.3240179 0.56402147 0.41485542 0.35730618
0.057909764 -0.33218208 -0.3597914 0.06605325 0.969139 1.076912 -0.73021775 -1.7829628
-0.37484604 0.7416915 0.09765277 0.2434441 -1.023248 -1.2027417 -0.045708586 -1.1227077
00000000: 0000 0000 0000 0000 0000 0000 0000 0000
00000010: 7383 c73f 88f7 19bf d41e 143f 0625 913f
00000020: fdf5 ad3f c4f4 5fbf 373c 85bf b8c2 72be
00000030: c370 d2bd 8f43 88bf c90e e53c c343 9c3f
00000040: 85a8 463e 57c5 7e3e 9535 ae3f e01c 45bf
00000050: aaf9 b2bf c757 bbbe 703a b03e d596 8abf
00000060: 8602 903f 9b55 35bf 8a63 7c3e c83b 883e
00000070: 1a5a ea3e 3abe a33f 4321 75be 819c ff3d
00000080: 6334 98bf cf81 33bf c77c aabf c06d c23e
00000090: 6b79 a9bf b663 103f ee67 d43e d6f0 b63e
000000a0: ca32 6d3d c513 aabe 9436 b8be ed46 873d
000000b0: 7e19 783f 41d8 893f 8def 3abf 2038 e4bf
000000c0: d2eb bfbe 7fdf 3d3f 2dfe c73d 6949 793e
000000d0: caf9 82bf 71f3 99bf ed38 3bbd e3b4 8fbf

lstm.weight_ih_l0 f4 [512, 15]
0.046688348 0.019932222 0.036640152 0.0322325 0.0005411036 -0.18416008 -0.007291087 -0.025214048
0.001784447 -0.039263774 0.07290831 -0.07674533 -0.016487243 0.021669103 -0.0140844975 -0.1243747
-0.040034927 -0.072480164 -0.051504698 -0.0395721 0.0456654 0.03504918 0.12004106 0.12480082
0.039727494 0.019358141 0.045117844 0.08940466 -0.013754766 -0.027164117 -0.0049785785 0.13661918
0.087638125 0.12908399 0.08981451 0.15841055 0.042142764 -0.10638384 -0.055543374 -0.0037347232
-0.032408856 0.06227639 -0.02901226 0.07035356 0.0672264 0.077484615 0.11508137 -0.07331551
0.013098987 0.070188455 0.05395432 0.08946835 -0.044598535 0.046190206 -0.07358711 0.068225645
-0.056870636 0.014487039 0.09233275 -0.053658873 -0.073766306 0.05793916 0.07849686 0.08361795
0.059633255 -0.020045413 -0.007262034 0.074960575 0.016619867 -0.06924925 0.06798408 -0.08322729
0.032646436 0.063367024 0.0052796663 -0.024448508 0.08449069 -0.021941943 -0.035995208 -0.07047201
-0.00712717 0.014489275 0.048964497 0.08369226 0.059676886 0.08742457 -0.06696273 -0.030811101
-0.08826007 -0.051007207 0.03550655 0.026555382 -0.05853406 0.0186808 0.03752946 -0.15600842
0.13613634 -0.07080078 0.04607344 0.09068742 0.031312436 0.012832682 0.029686708 0.06123901
-0.04349319 -0.05306767 0.07382516 0.031708274 0.016376417 -0.044770196 0.026753766 0.018716153
0.12058472 -0.03666764 -0.014896223 0.07673675 0.07692311 -0.020308916 -0.023579862 0.067246206
-0.06111028 0.012423073 0.030452328 0.097799644 -0.054626986 0.037752375 0.12152797 -0.016818278
-0.055909745 -0.0189152 0.013741058 -0.056233976 0.017528765 -0.056395084 -0.05219857 -0.0542135
0.08794566 -0.032646395 0.06102236 -0.046518896 -0.02859547 0.04788033 0.09926042 0.08676757
-0.027287612 -0.036329906 0.03790019 0.064874664 -0.053960748 -0.04918233 -0.0646802 0.07711266
-0.06436586 -0.08491645 0.026229283 -0.039736565 -0.08607895 -0.045993958 -0.06943779 0.009084714
0.00066306 0.06956087 0.0051634163 0.033534728 0.03542659 0.016921801 0.039324112 0.06926953
0.016472572 0.003451242 -0.28993097 -0.002218357 0.025219832 -0.039296225 0.0014738634 -0.01753028
-0.08199359 0.055586115 -0.022130085 0.033721346 0.04915242 0.10647645 -0.016466511 -0.025720278
-0.046207137 0.0040610335 0.0855968 0.06445239 0.044040702 -0.048960187 -0.056349035 -0.03517408
0.04061947 -0.023959195 0.08282647 0.041534934 -0.14051245 -0.037613485 -0.088673025 0.023951795
-0.020769274 -0.110174194 0.08666998 0.1266331 0.03285989 0.07684586 0.0667074 -0.042179774
0.11176312 -0.046899114 0.036742367 0.08383171 -0.0007703148 0.01949712 0.02511598 0.052088033
0.029769517 0.047324184 0.04311515 -0.09719022 -0.078184366 -0.11067254 -0.09075822 -0.07658215
-0.0304309 0.022390336 0.05151867 0.10454382 -0.006078076 0.050557647 -0.15391639 0.04081606
0.06961022 -0.05353569 0.02274678 0.0134852715 0.07217682 -0.055816673 0.0017094322 0.0874916
-0.07470023 -0.03292156 -0.07237216 0.046900023 -0.123371884 -0.06047165 0.004098973 -0.00041328254
-0.0046768514 -0.09772488 0.078454 0.0064535043 0.007793707 0.046454914 -0.035685476 -0.008032269
00000000: 483c 3f3d e648 a33c fc13 163d 3a06 043d
00000010: d9d8 0d3a 7694 3cbe 12ea eebb b18d cebc
00000020: 1be4 e93a 0dd3 20bd f450 953d a82c 9dbd
00000030: 4110 87bc 6783 b13c aac2 66bc 2ab8 febd
00000040: aafb 23bd 7b70 94bd 97f6 52bd 5b16 22bd
00000050: a40b 3b3d bb8f 0f3d 16d8 f53d 9397 ff3d
00000060: 4cb9 223d f794 9e3c 7dcd 383d ca19 b73d
00000070: ac5b 61bc 4887 debc 5823 a3bb e6e5 0b3e
00000080: 9e7b b33d 982e 043e abf0 b73d 6036 223e
00000090: e49d 2c3d c5df d9bd 7381 63bd 42c2 74bb
000000a0: 26bf 04bd 8715 7f3d 1eab edbc 8715 903d
000000b0: ffad 893d 41b0 9e3d c8af eb3d 7126 96bd
000000c0: 229d 563c f7be 8f3d 34ff 5c3d 2f3b b73d
000000d0: f4ac 36bd f131 3d3d d7b4 96bd e3b9 8b3d
000000e0: 2ff1 68bd 0c5b 6d3c f418 bd3d 68c9 5bbd
000000f0: ca12 97bd 9d51 6d3d f6c2 a03d e33f ab3d
00000100: 0042 743d 4736 a4bc 5bf6 edbb ee84 993d
00000110: 6326 883c 8dd2 8dbd 3d3b 8b3d 1273 aabd
00000120: 45b8 053d 92c6 813d 0d01 ad3b 3d48 c8bc
00000130: 7409 ad3d 97bf b3bc b66f 13bd a153 90bd
00000140: 098b e9bb 6d64 6d3c ff8e 483d d966 ab3d
00000150: c06f 743d a70b b33d c123 89bd 9067 fcbc
00000160: b2c1 b4bd efec 50bd 516f 113d ac8a d93c
00000170: 69c1 6fbd 7a08 993c 7eb8 193d acc0 1fbe
00000180: 5367 0b3e 0000 91bd 81b7 3c3d 53ba b93d
00000190: 7841 003d 2b40 523c 8a31 f33c c2d5 7a3d
000001a0: ea25 32bd 7c5d 59bd a531 973d 89e0 013d
000001b0: d627 863c f460 37bd b72a db3c 9e52 993c
000001c0: 1ff5 f63d cf30 16bd 4a0f 74bc 2828 9d3d
000001d0: dd89 9d3d e25e a6bc 8e2a c1bc 61b8 893d
000001e0: c64e 7abd 258a 4b3c 2977 f93c 2e4b c83d
000001f0: 8cc0 5fbd 3ca2 1a3d a8e3 f83d 7cc6 89bc
00000200: 9e01 65bd 0df4 9abc 2d22 613c 9955 66bd
00000210: 7c98 8f3c 88fe 66bd 2bce 55bd fa0e 5ebd
00000220: db1c b43d 3ab8 05bd 95f2 793d 998a 3ebd
00000230: 0c41 eabc 2a1e 443d 0c49 cb3d 32b3 b13d
00000240: 458a dfbc abce 14bd 3b3d 1b3d 02dd 843d
00000250: f205 5dbd 6973 49bd 0d77 84bd 3eed 9d3d
00000260: 3fd2 83bd ade8 adbd cbde d63c cfc2 22bd
00000270: 294a b0bd 2964 3cbd 6635 8ebd 0dd8 143c
00000280: 34d1 2d3a ee75 8e3d e031 a93b b65b 093d
00000290: 791b 113d 979f 8a3c 5212 213d 2fdd 8d3d
000002a0: 7df1 863c 3c2e 623b d571 94be db61 11bb
000002b0: d299 ce3c 14f5 20bd a62e c13a a99b 8fbc
000002c0: 41ec a7bd 44ae 633d 274a b5bc 651f 0a3d
000002d0: 0c54 493d 5310 da3d c7e4 86bc 55b3 d2bc
000002e0: b243 3dbd 6b12 853b 604d af3d 9dff 833d
000002f0: 0664 343d 7a8a 48bd 3fce 66bd b212 10bd
00000300: 9a60 263d 1346 c4bc eda0 a93d 8920 2a3d
00000310: 7fe2 0fbe 9910 1abd 349a b5bd 8e36 c43c
00000320: 5324 aabc 02a3 e1bd 0880 b13d 1bac 013e
00000330: 1898 063d 5d61 9d3d e49d 883d b3c4 2cbd
00000340: 10e4 e43d 4919 40bd 2a7f 163d f6af ab3d
00000350: f3ee 49ba 6db8 9f3c 07c0 cd3c 435a 553d
00000360: 34df f33c 01d7 413d 8399 303d ab0b c7bd
00000370: 201f a0bd 49a8 e2bd 72df b9bd 1ad7 9cbd
00000380: 394a f9bc f06b b73c 3e05 533d 121b d63d
00000390: 992a c7bb 8915 4f3d 429c 1dbe be2e 273d
000003a0: ce8f 8e3d 3d48 5bbd 7557 ba3c 54f1 5c3c
000003b0: 71d1 933d 06a0 64bd 070f e03a cc2e b33d
000003c0: 6ffc 98bd c2d8 06bd db37 94bd 3d1a 403d
000003d0: 66aa fcbd 1fb1 77bd ad50 863b d8ad d8b9
000003e0: 4640 99bb fb23 c8bd 7eac a03d eb77 d33b
000003f0: 5a62 ff3b 8247 3e3d ef2a 12bd c799 03bc

lstm.weight_hh_l0 f4 [512, 128]
-0.038607772 -0.06361943 -0.015161117 0.034462117 -0.08300031 -0.05400987 0.036262535 0.032106336
-0.06544533 0.04880803 0.048713606 -0.020229941 -0.028536355 -0.06100176 -0.07873792 0.05121679
-0.020747324 -0.07144049 -0.099693716 0.039856922 0.04339648 0.051246274 0.08720113 -0.013594117
0.026845746 -0.048304524 -0.018075366 -0.062837526 -0.017823229 -0.04530426 -0.023527717 0.015954593
0.059502322 0.048922904 -0.08144159 -0.033602014 0.08635426 0.058576725 -0.03795109 0.058707874
-0.08427496 -0.07620753 0.01198221 0.06283114 -0.057193242 -0.035445258 -0.000791289 -0.05938459
-0.07705156 0.04672971 0.07078623 0.038731337 0.07625014 -0.08001229 -0.07838884 0.03014345
0.008360771 -0.013643066 -0.003469576 0.033064723 -0.056788202 0.03268309 0.05148127 0.098240905
-0.053194333 0.015190018 -0.07226411 -0.06706857 0.04049331 -0.022148605 -0.052572817 0.05008905
0.069538176 -0.07295416 0.02529409 -0.052168258 -0.051114097 -0.014833556 0.048534792 -0.013727454
-0.06461793 0.030749062 -0.028520212 -0.016770389 -0.005491394 -0.029687433 0.00045363329 0.038538314
0.032610293 -0.061626207 -0.0946953 0.01204655 -0.095177665 -0.050038163 0.05903881 -0.009998523
0.017044779 -0.0032934307 0.017146403 0.081501015 -0.023105495 -0.05478224 -0.07746527 -0.00043353968
0.034886044 -0.0035584248 -0.080683626 0.039645053 -0.009717619 0.024250783 -0.052477144 0.0033359453
0.05374652 -0.0007921101 0.06801108 0.022471262 -0.08617367 0.076625556 0.009714864 0.068198726
0.047152422 0.048375733 -0.07743773 -0.07628269 -0.07866798 0.040387318 0.05489642 -0.03456407
0.04410813 0.06341758 0.08594376 0.050328102 0.08203962 0.036099136 -0.044347383 0.087034516
0.0053059086 0.10532787 0.07205366 0.055081643 0.0129159875 -0.017507417 -0.043476634 -0.06639211
-0.036531966 -0.06473589 -0.0473225 0.0559425 0.06842528 0.06885215 0.0064048036 -0.052443046
0.016165322 0.10613974 0.021327406 0.046055723 -0.00028652852 -0.11143336 -0.029022012 -0.06198178
0.0050329673 0.02243435 0.030158695 -0.0878906 -0.006651219 0.04673496 0.0012067865 0.05791443
-0.00058190903 -0.020334207 -0.0016105506 0.051868167 0.032887638 -0.08743574 0.08047777 -0.06522464
0.035716332 -0.048440266 0.03476764 0.0863324 0.060390487 -0.025925186 -0.087746955 -0.01685154
-0.013324464 -0.0028384454 0.0950883 0.054315917 0.04190295 -0.034330275 0.03279563 -0.014066015
-0.0975007 -0.033345968 -0.013417328 -0.050222926 0.058500256 -0.031652488 -0.087160915 -0.015635412
0.09721894 -0.06196621 0.045986287 0.03004835 -0.010488545 -0.01980167 -0.10732094 0.08522259
0.024867496 -0.07048882 0.07019524 -0.0441476 0.07366386 -0.09298032 0.06416439 0.099297106
-0.011835608 -0.06349382 -0.01641343 0.026920717 -0.06977739 0.11221507 0.0077155214 -0.016783215
0.032500807 0.020403912 0.054516364 -0.066218466 0.04796172 0.04406675 -0.04699092 -0.002017107
0.046977572 0.05689361 -0.08274652 0.031941425 -0.072211154 0.026856767 -0.043540534 0.00982317
-0.0006866278 -0.05471924 0.09931267 -0.024405912 -0.06112422 -0.09847246 -0.04216595 -0.041947857
-0.07384883 0.018882934 0.042750508 -0.051676713 0.021050628 0.077735744 -0.00081599096 0.041989252
00000000: 2f23 1ebd e74a 82bd 5566 78bc 2628 0d3d
00000010: 11fc a9bd 7439 5dbd 0688 143d ef81 033d
00000020: 3408 86bd eeea 473d eb87 473d 43b9 a5bc
00000030: 13c5 e9bc fbdc 79bd 5941 a1bd b2c8 513d
00000040: 4bf6 a9bc 644f 92bd 382c ccbd 0341 233d
00000050: 82c0 313d 9de7 513d 8296 b23d dcb9 5ebc
00000060: 9ceb db3c f7da 45bd ca12 94bc f6b0 80bd
00000070: 0502 92bc f690 39bd 33bd c0bc 35b3 823c
00000080: b5b8 733d 6263 483d d9ca a6bd 44a2 09bd
00000090: 81da b03d 26ee 6f3d 9a72 1bbd ab77 703d
000000a0: 5a98 acbd b212 9cbd 0851 443c 9dad 803d
000000b0: 7643 6abd 0c2f 11bd 826e 4fba 413d 73bd
000000c0: 35cd 9dbd a767 3f3d 5ff8 903d c0a4 1e3d
000000d0: 0929 9c3d 7cdd a3bd 548a a0bd 65ef f63c
000000e0: 9efb 083c 2b87 5fbc d361 63bb e06e 073d
000000f0: bf9a 68bd b4de 053d 06de 523d 8732 c93d
00000100: 4de2 59bd 8edf 783c 35ff 93bd 3f5b 89bd
00000110: 50dc 253d fe70 b5bc 9856 57bd 2d2a 4d3d
00000120: 086a 8e3d fe68 95bd 8d35 cf3c 62ae 55bd
00000130: 045d 51bd 7108 73bc 6bcc 463d 1de9 60bc
00000140: 6856 84bd 75e5 fb3c 38a3 e9bc 0e62 89bc
00000150: 27f1 b3bb 0f33 f3bc a1d5 ed39 5ada 1d3d
00000160: 5f92 053d c36b 7cbd 9cef c1bd e55e 453c
00000170: 82ec c2bd d1f4 4cbd aed2 713d d8d0 23bc
00000180: 7ea1 8b3c 99d6 57bb 9d76 8c3c 01ea a63d
00000190: bc47 bdbc 5863 60bd 1da6 9ebd b64c e3b9
000001a0: abe4 0e3d 7634 69bb 753d a5bd da62 223d
000001b0: a636 1fbc 94a9 c63c 46f2 56bd e09f 5a3b
000001c0: 5025 5c3d 9ca5 4fba 6549 8b3d a715 b83c
000001d0: d27b b0bd dced 9c3d 182b 1f3c c6ab 8b3d
000001e0: e622 413d a225 463d ac97 9ebd 193a 9cbd
000001f0: ae1c a1bd 2c6d 253d 12db 603d 0e93 0dbd
00000200: baaa 343d 14e1 813d 4803 b03d d724 4e3d
00000210: 6304 a83d b0dc 133d 9aa5 35bd 273f b23d
00000220: 30dd ad3b 23b6 d73d df90 933d 4a9d 613d
00000230: 949d 533c b76b 8fbc 8e14 32bd 96f8 87bd
00000240: 8ba2 15bd 4094 84bd 3dd5 41bd f623 653d
00000250: 8e22 8c3d 5b02 8d3d 63df d13b 85ce 56bd
00000260: 236d 843c cb5f d93d d0b6 ae3c eda4 3c3d
00000270: 3539 96b9 2c37 e4bd 92bf edbc 9be0 7dbd
00000280: 97eb a43b 3ec8 b73c 5e0f f73c fdff b3bd
00000290: 78f2 d9bb 286d 3f3d 092d 9e3a ae37 6d3d
000002a0: 418b 18ba ec93 a6bc 1c19 d3ba b773 543d
000002b0: 30b5 063d 8211 b3bd 87d1 a43d 7f94 85bd
000002c0: 4a4b 123d 4d69 46bd 8368 0e3d 0bcf b03d
000002d0: 045c 773d 0e61 d4bc adb4 b3bd 3e0c 8abc
000002e0: da4e 5abc 3605 3abb a8bd c23d 5e7a 5e3d
000002f0: 6da2 2b3d e79d 0cbd b654 063d 2575 66bc
00000300: 72ae c7bd c895 08bd 5ad4 5bbc 8eb6 4dbd
00000310: f79d 6f3d 0aa6 01bd 6c81 b2bd d615 80bc
00000320: b91a c73d 48d0 7dbd 1e5c 3c3d f527 f63c
00000330: 25d8 2bbc 1d37 a2bc 15cb dbbd 2e89 ae3d
00000340: ebb6 cb3c 715c 90bd 86c2 8f3d 1dd4 34bd
00000350: 14dd 963d 776c bebd 9f68 833d 485c cb3d
00000360: 23ea 41bc 0c09 82bd 7575 86bc d688 dc3c
00000370: 73e7 8ebd 04d1 e53d 7cd2 fc3b f47c 89bc
00000380: 911f 053d 1b26 a73c 8d4c 5f3d 8c9d 87bd
00000390: 8273 443d 567f 343d 8d79 40bd 7131 04bb
000003a0: 8e6b 403d 4609 693d 0277 a9bd 03d5 023d
000003b0: 71e3 93bd b902 dc3c 8f57 32bd 5cf1 203c
000003c0: d0fe 33ba 4821 60bd 7164 cb3d e8ee c7bc
000003d0: 645d 7abd eeab c9bd 34b6 2cbd 84d1 2bbd
000003e0: 0e3e 97bd 62b0 9a3c 281b 2f3d f6aa 53bd
000003f0: 5e72 ac3c eb33 9f3d 3ae8 55ba ecfc 2b3d

lstm.bias_ih_l0 f4 [512]
-0.024927944 -0.09553977 -0.052356504 -0.027473373 -0.018420469 -0.091206774 -0.014589195 -0.044277404
-0.03622067 -0.07941415 -0.03985025 -0.030244717 0.058706127 -0.09503437 0.0052853324 0.09215966
-0.12140622 0.070160136 0.029135304 -0.08616083 0.048043184 0.06366533 0.059629407 -0.00045360054
0.08429232 -0.01775917 -0.053880654 0.083736256 -0.03970594 -0.050460707 0.044918608 0.017892236
0.0028615708 -0.07142808 0.02344759 -0.05553986 0.054864198 0.033411086 0.05727312 0.031557783
-0.0877971 -0.09028333 -0.06392945 -0.013431385 -0.0250613 0.038381223 -0.052213408 -0.026776653
-0.010969031 -0.018660584 -0.061404653 -0.07966727 -0.06513295 -0.047432378 0.060875233 0.011816885
0.004812231 0.057159483 0.04636634 0.06797015 0.015401345 -0.021600507 -0.027590359 -0.061336767
0.08886722 -0.03565942 0.017420275 -0.0314767 0.07262872 -0.10373339 -0.039403908 -0.09953063
-0.022175822 0.06413177 -0.03953965 -0.023421202 -0.01008777 0.0029600554 0.056467574 -0.089447744
0.071339875 0.05004306 -0.07201874 -0.08122409 -0.05403307 0.036723174 -0.08787228 -0.047844578
-0.011462216 -0.0030759177 0.011959253 -0.08917775 0.04408707 0.054343045 0.029700954 -0.09062833
-0.029383527 -0.019947574 -0.042511083 -0.07066689 0.07339332 0.004683829 0.06673562 -0.0626118
-0.05388269 0.027133022 -0.088066734 -0.01752062 -0.030962817 0.020683799 0.027854344 -0.008702345
0.0049229674 0.06836903 -0.09180968 -0.033676274 0.034353174 -0.05742853 0.045109462 0.13179931
-0.017135976 0.09597947 -0.0972477 0.050819 0.036249574 0.006564026 0.09732315 -0.07493304
0.015856957 0.0190921 0.065332726 0.036434267 -0.07184262 0.004326494 0.022184854 -0.090604566
-0.006732213 -0.07364323 -0.09356279 -0.018149592 -0.0011207255 -0.022332668 0.041558836 0.018030066
0.034548037 -0.049251016 -0.0048874803 -0.047411866 -0.048463266 0.00080350647 0.023158869 -0.09274736
0.042970143 0.06715019 -0.039501026 0.032683637 -0.031096091 0.060742006 0.03444884 0.023118231
0.04894154 -0.0913841 -0.016229931 0.03813944 -0.026059318 -0.071443826 -0.024802342 0.068518914
-0.11344871 -0.055253714 -0.008534875 0.032947674 0.024213953 -0.0556501 -0.06855152 -0.09058379
0.0502092 -0.017664999 -0.046373136 -0.016435347 -0.09912359 -0.006711201 -0.0817688 0.051696736
0.061660465 0.0018622751 0.00087734964 0.0025006905 -0.0040133037 0.014103585 -0.108769715 -0.048628025
0.015776962 -0.06882918 -0.04451755 -0.004561886 0.008527547 -0.08919351 0.04618519 -0.030776076
0.015271699 0.06453203 0.019467885 0.0031271006 -0.0060670017 -0.021977432 -0.056923352 -0.028126212
-0.07944617 -0.0133220265 -0.03300722 0.0028142303 -0.069673926 -0.028435903 -0.09609224 0.038076714
-0.04523566 -0.021613544 -0.08733268 -0.08141677 -0.08533785 0.012809127 0.0020468102 -0.10553295
-0.08735499 0.038321994 -0.010691733 -0.048539635 -0.035220504 -0.05794105 0.024020975 0.025435595
-0.005350909 -0.024174232 0.042085614 0.021245427 0.017087206 -0.007968586 0.06877938 -0.0075421613
0.0764366 -0.014092785 0.022009194 -0.0627187 0.024636991 -0.10792931 -0.0691253 -0.0079844175
0.0086312955 -0.09895011 -0.03242464 -0.008844042 -0.061744925 -0.0012232186 0.056475647 -0.010677925
00000000: b035 ccbc 5baa c3bd c673 56bd d70f e1bc
00000010: 86e6 96bc 9eca babd 8507 6fbc 395c 35bd
00000020: 205c 14bd e3a3 a2bd 043a 23bd c5c3 f7bc
00000030: d675 703d 61a1 c2bd 9530 ad3b 34be bc3d
00000040: d3a3 f8bd 1eb0 8f3d 29ad ee3c 1775 b0bd
00000050: eec8 443d f862 823d f73d 743d 3cd1 edb9
00000060: 74a1 ac3d ae7b 91bc f6b1 5cbd ea7d ab3d
00000070: b2a2 22bd e3af 4ebd 93fc 373d bd92 923c
00000080: 3189 3b3b e348 92bd 2915 c03c c47d 63bd
00000090: 48b9 603d 10da 083d 3897 6a3d bc42 013d
000000a0: f7ce b3bd 77e6 b8bd 72ed 82bd 500f 5cbc
000000b0: 5b4d cdbc a135 1d3d badd 55bd b65a dbbc
000000c0: 73b7 33bc 15de 98bc 7283 7bbd 9828 a3bd
000000d0: 6d64 85bd 7448 42bd 4f58 793d 9c9b 413c
000000e0: ebaf 9d3b 1020 6a3d a2ea 3d3d ef33 8b3d
000000f0: ec55 7c3c 8cf3 b0bc 2d05 e2bc 433c 7bbd
00000100: 0400 b63d 9d0f 12bd f7b4 8e3c b6ed 00bd
00000110: 5ebe 943d 2c72 d4bd fe65 21bd b7d6 cbbd
00000120: 12aa b5bc 8457 833d 54f4 21bd d2dd bfbc
00000130: 2d47 25bc 7dfd 413b 8b4a 673d 6130 b7bd
00000140: a41a 923d f4f9 4c3d 907e 93bd d158 a6bd
00000150: c851 5dbd 0a6b 163d 62f6 b3bd adf8 43bd
00000160: 05cc 3bbc 5695 49bb bef0 433c d3a2 b6bd
00000170: a594 343d d096 5e3d 6a4f f33c 599b b9bd
00000180: b9b5 f0bc 1869 a3bc 1a20 2ebd cdb9 90bd
00000190: 3d4f 963d ce7a 993b afac 883d 9e3a 80bd
000001a0: 18b4 5cbd 1246 de3c 555c b4bd 6787 8fbc
000001b0: bca5 fdbc 1271 a93c cb2e e43c 4894 0ebc
000001c0: d850 a13b 1005 8c3d b706 bcbd 22f0 09bd
000001d0: eab5 0c3d 2e3a 6bbd b3c4 383d 66f6 063e
000001e0: bf60 8cbc e290 c43d cd29 c7bd 9527 503d
000001f0: 6f7a 143d 0b17 d73b 5c51 c73d 7e76 99bd
00000200: 73e6 813c 0967 9c3c 2acd 853d 193c 153d
00000210: 3922 93bd 43c5 8d3b 03bd b53c e38e b9bd
00000220: e599 dcbb 43d2 96bd d99d bfbd 74ae 94bc
00000230: 4fe5 92ba 00f3 b6bc 9939 2a3d cab3 933c
00000240: 3e82 0d3d 6fbb 49bd 2827 a0bb f232 42bd
00000250: 6b81 46bd 68a2 523a abb7 bd3c 54f2 bdbd
00000260: 7601 303d 0a86 893d d4cb 21bd 47df 053d
00000270: 3bbd febc 9ccc 783d 3a1a 0d3d 7262 bd3c
00000280: ed76 483d 9627 bbbd a2f4 84bc 1a38 1c3d
00000290: 5a7a d5bc 2451 92bd 482e cbbc a553 8c3d
000002a0: cc57 e8bd b851 62bd dcd5 0bbc 24f4 063d
000002b0: 575c c63c 5cf1 63bd bd64 8cbd fe83 b9bd
000002c0: 29a8 4d3d 30b6 90bc c2f1 3dbd 6ca3 86bc
000002d0: 4f01 cbbd a2e9 dbbb 6776 a7bd f5bf 533d
000002e0: af8f 7c3d 9517 f43a f0fd 653a a0e2 233b
000002f0: 0882 83bb b912 673c a8c2 debd 2e2e 47bd
00000300: b03e 813c 50f6 8cbd 0958 36bd e07b 95bb
00000310: 20b7 0b3c 16ab b6bd af2c 3d3d 1c1e fcbc
00000320: 2636 7a3c 5e29 843d 1d7b 9f3c 0bf0 4c3b
00000330: b3cd c6bb 040a b4bc 7628 69bd f168 e6bc
00000340: acb4 a2bd a144 5abc 9432 07bd f36e 383b
00000350: 34b1 8ebd 69f2 e8bc 02cc c4bd 54f6 1b3d
00000360: 0749 39bd e30e b1bc 7adb b2bd d6bd a6bd
00000370: 9cc5 aebd 5fdd 513c c723 063b a921 d8bd
00000380: 2ce7 b2bd 86f7 1c3d 612c 2fbc 7fd1 46bd
00000390: 6043 10bd 9853 6dbd a3c7 c43c 4f5e d03c
000003a0: ae56 afbb 0a09 c6bc f761 2c3d e40a ae3c
000003b0: 78fa 8b3c ac8e 02bc 34dc 8c3d 3c24 f7bb
000003c0: cb8a 9c3d 6de5 66bc a04c b43c a972 80bd
000003d0: 84d3 c93c 0b0a ddbd 9191 8dbd 13d1 02bc
000003e0: 476a 0d3c 5ba6 cabd b3cf 04bd 9ae6 10bc
000003f0: 3fe8 7cbd 6854 a0ba 0253 673d 77f2 2ebc

lstm.bias_hh_l0 f4 [512]
-0.07811311 -0.060155775 -0.02465267 0.024186948 -0.0012495015 -0.07591507 0.10918391 -0.10295781
0.03206037 -0.0086665675 -0.08231805 -0.059969496 0.009342632 -0.054083653 0.03189328 -0.06635754
-0.11861799 0.025341118 0.10077298 -0.011272153 0.041549034 0.013755768 0.07533685 -0.074237965
0.010624227 -0.07775043 0.07046008 -0.04999966 -0.07755765 -0.027786871 -0.034411315 -0.114637494
-0.025652528 0.04793736 0.082123846 0.07137289 -0.045232892 0.09458173 0.10010623 0.060634807
-0.03431862 -0.030576674 -0.045308925 -0.07049156 -0.026701158 0.017829636 -0.029975906 0.04466075
-0.065545924 0.00929092 -0.066471145 -0.12063174 -0.006679431 0.062309783 0.028565887 -0.041295104
0.12167239 -0.04407744 -0.005556219 0.01728699 0.04164794 -0.049557738 0.04019334 -0.053347606
0.036346044 -0.075859904 0.06409911 -0.09636785 0.024915164 -0.094828084 0.0102571985 0.027257262
-0.085754044 -0.022801824 0.054022506 -0.025061954 0.041753158 -0.15122512 -0.07851305 0.076577
0.061097406 0.0859802 -0.0057151434 0.04099343 0.0398131 0.029519197 0.043774918 -0.06834549
-0.050304115 0.011959597 0.023016594 -0.07914985 -0.08366312 0.0070585134 0.04428028 -0.027851045
0.015469852 -0.07213999 0.04492505 0.0045433603 -0.0031703983 -0.091760546 0.024323605 0.022172993
-0.0038795117 0.026740246 -0.086093426 -0.07795142 0.086138986 -0.024664462 0.053692658 -0.078473665
0.016020648 0.051150706 0.030335614 -0.03016687 -0.043865286 -0.07457252 0.08900832 0.1202122
0.05732515 0.0674638 -0.0628271 -0.087485425 0.041281085 -0.0008574698 0.09066509 -0.0118358955
0.007533692 0.040627863 0.034560565 -0.048240338 0.041454405 0.0043494045 -0.087763794 0.051270165
-0.07732447 -0.059827793 -0.046261877 -0.114872456 0.054509062 -0.0022492795 0.059934024 0.041510038
-0.11181011 -0.053760894 -0.06497151 0.06587145 -0.020214757 -0.063590236 0.060187172 -0.110414594
-0.0010982186 -0.097831935 0.052543104 0.052773003 -0.041570626 0.040194914 -0.015727554 -0.09543394
-0.035904177 -0.008273557 0.042273078 0.061158884 -0.077284224 -0.12406017 -0.049077645 -0.050978348
-0.026660897 -0.096786655 0.04137397 -0.13413788 -0.10477519 -0.06832843 -0.026379231 0.053078048
-0.040842216 -0.05047854 0.03913579 -0.13037077 0.051764477 -0.03867329 -0.0065839216 -0.019065151
-0.054124407 0.004937745 0.053282 -0.05659237 -0.06434819 -0.019151315 -0.014035083 -0.114137925
-0.0004741696 0.018341264 0.046786193 -0.024077693 0.08054925 -0.10832894 -0.045615587 -0.08584193
-0.028630814 0.0729918 -0.05092392 -0.006005702 0.058951568 -0.05371404 0.011162505 -0.033212338
0.081505865 -0.014753769 0.034859493 0.0027594136 0.009548808 0.021160295 -0.03516616 0.030388264
-0.05851049 -0.085940294 0.055231404 -0.004885989 0.05873898 -0.0012359144 0.031208906 -0.064400844
-0.04118534 -0.02320405 -0.015049433 0.057617214 -0.06327337 -0.030837692 0.053148758 -0.11061792
0.0636773 0.0643242 -0.03417299 -0.121524714 -0.09052602 -0.030224744 -0.04482373 0.0011925695
-0.084494464 -0.06400305 -0.07910676 -0.12024924 0.045173943 -0.10408247 0.043259274 0.022173787
-0.082734235 0.06557726 -0.08381653 -0.01404714 -0.08272807 0.018773716 -0.05999935 -0.08740026
00000000: c4f9 9fbd e765 76bd 65f4 c9bc b523 c63c
00000010: 50c6 a3ba 5c79 9bbd d09b df3d 8bdb d2bd
00000020: bc51 033d 38fe 0dbc 5e96 a8bd 93a2 75bd
00000030: d711 193c d286 5dbd 87a2 023d 76e6 87bd
00000040: fded f2bd 2d98 cf3c 1062 ce3d d6ae 38bc
00000050: 522f 2a3d df5f 613c 354a 9a3d 130a 98bd
00000060: 3d11 2e3c 9e3b 9fbd 604d 903d 72cc 4cbd
00000070: 8cd6 9ebd 4ba1 e3bc e1f2 0cbd 10c7 eabd
00000080: 4025 d2bc f759 443d 8c30 a83d f32b 923d
00000090: 2046 39bd 11b4 c13d 7f04 cd3d 345c 783d
000000a0: ae91 0cbd ef7b fabc da95 39bd e15d 90bd
000000b0: 63bc dabc 750f 923c 0890 f5bc 31ee 363d
000000c0: f13c 86bd f138 183c 0622 88bd c60d f7bd
000000d0: 21df dabb 8b38 7f3d 0203 ea3c 0e25 29bd
000000e0: 602f f93d 8c8a 34bd f110 b6bb 729d 8d3c
000000f0: 0897 2a3d 0efd 4abd c6a1 243d 0583 5abd
00000100: 97df 143d 705c 9bbd 6546 833d 825c c5bd
00000110: e31a cc3c 3a35 c2bd cf0d 283c 9f4a df3c
00000120: d19f afbd e4ca babc b446 5d3d ba4e cdbc
00000130: 5c05 2b3d c2da 1abe 73cb a0bd 67d4 9c3d
00000140: 4641 7a3d 6316 b03d 1946 bbbb bae8 273d
00000150: 1013 233d 3ed2 f13c 544d 333d b8f8 8bbd
00000160: b00b 4ebd 2ff2 433c 4c8d bc3c 5119 a2bd
00000170: 9257 abbd 1a4b e73b 3d5f 353d e027 e4bc
00000180: 4375 7d3c 22be 93bd 5403 383d 78e0 943b
00000190: 75c6 4fbb f4ec bbbd 4c42 c73c 23a4 b53c
000001a0: 683f 7ebb 5c0e db3c c051 b0bd fea4 9fbd
000001b0: a369 b03d 200d cabc d5ec 5b3d cdb6 a0bd
000001c0: bc3d 833c 6783 513d 6582 f83c 8320 f7bc
000001d0: 16ac 33bd 7ab9 98bd fe49 b63d d031 f63d
000001e0: c7cd 6a3d 762a 8a3d 7fab 80bd 8f2b b3bd
000001f0: 5b16 293d d3c7 60ba 9eae b93d 58eb 41bc
00000200: 30dd f63b 6769 263d 618f 0d3d a997 45bd
00000210: 18cc 293d 7385 8e3b 81bd b3bd aa00 523d
00000220: 4b5c 9ebd fd0d 75bd 187d 3dbd 4042 ebbd
00000230: e544 5f3d a668 13bb 617d 753d 6e06 2a3d
00000240: b3fc e4bd 6234 5cbd c80f 85bd 9ce7 863d
00000250: 6b99 a5bc 993b 82bd d386 763d 0c21 e2bd
00000260: 1af2 8fba 1c5c c8bd 7037 573d 8128 583d
00000270: f645 2abd 6ca3 243d 12d7 80bc df72 c3bd
00000280: 4210 13bd d08d 07bc 8926 2d3d bd81 7a3d
00000290: 3147 9ebd 4213 febd a405 49bd acce 50bd
000002a0: f467 dabc 1538 c6bd c177 293d 715b 09be
000002b0: 6094 d6bd c7ef 8bbd 4219 d8bc 5e68 593d
000002c0: 2b4a 27bd 96c2 4ebd da4c 203d ea7f 05be
000002d0: fd06 543d e267 1ebd f0bd d7bb 852e 9cbc
000002e0: 8eb1 5dbd cfcc a13b 3a3e 5a3d 67cd 67bd
000002f0: fcc8 83bd 38e3 9cbc 68f3 65bc 25c1 e9bd
00000300: f799 f8b9 6b40 963c e1a2 3f3d 953e c5bc
00000310: 01f7 a43d 90db ddbd 69d7 3abd e5cd afbd
00000320: 2b8b eabc ba7c 953d 9a95 50bd 7bcb c4bb
00000330: 3377 713d 4103 5cbd f0e2 363c a909 08bd
00000340: 8cec a63d cbb9 71bc d4c8 0e3d 47d7 343b
00000350: 9b72 1c3c 5b58 ad3c 640a 10bd cff0 f83c
00000360: b2a8 6fbd 7701 b0bd 533a 623d a51a a0bb
00000370: 4998 703d 68fe a1ba d2a9 ff3c 97e4 83bd
00000380: f6b1 28bd 6b16 bebc e691 76bc 0700 6c3d
00000390: 7895 81bd 549f fcbc 83b2 593d a68b e2bd
000003a0: 3f69 823d 68bc 833d faf8 0bbd f3e1 f8bd
000003b0: b565 b9bd e299 f7bc 1699 37bd fe4f 9c3a
000003c0: 6f0b adbd 0814 83bd ba02 a2bd 3c45 f6bd
000003d0: 5008 393d 3129 d5bd a330 313d cda5 b53c
000003e0: 9170 a9bd 5f4d 863d 00a8 abbd fa25 66bc
000003f0: 566d a9bd 56cb 993c e1c1 75bd e8fe b2bd

lstm.weight_ih_l1 f4 [512, 128]
-0.009289385 -0.06581236 -0.06276596 -0.056914594 -0.08794826 0.08164684 0.074890405 -0.03884642
0.08078251 -0.036823925 -0.0073533254 -0.040347453 0.021115078 -0.059947986 0.04416135 -0.10942892
-0.0052865287 -0.04948606 0.01855701 0.09828384 0.00712192 -0.037813213 -0.0593553 -0.056871492
-0.039037075 -0.062191177 0.024682226 -0.011851841 0.0114926 0.09938399 -0.045327663 -0.00034179632
-0.08306475 0.05092462 -0.011421522 -0.003938328 0.10281597 0.021605618 -0.033844307 0.078339845
0.00501508 -0.04409357 -0.0068767485 0.059351027 0.040066842 0.02082804 -0.040533386 -0.032104596
0.10826142 0.081006475 -0.11715304 -0.045852624 0.032161187 0.08401861 -0.0010134147 0.063720666
0.048784755 0.10507707 -0.0069939666 -0.062285423 -0.032408003 -0.022122651 -0.09628304 0.0017359862
-0.023634085 0.035492085 0.007600014 0.0016503633 -0.036991917 -0.027215282 0.0977755 0.0140927965
-0.05234587 0.059902444 0.023367971 0.048879314 0.077944025 -0.024076506 -0.009560867 -0.10321838
0.041604597 -0.034552313 -0.10639441 -0.022428114 -0.036602214 0.0491307 -0.11009919 -0.070160896
-0.088481896 0.05147479 -0.045026693 0.04947165 -0.018108957 -0.013277051 0.050294016 0.06826757
-0.07628409 0.049040318 0.04290698 0.06453684 0.0027472656 0.039135415 -0.012390615 0.08624449
-0.07761948 -0.090919 -0.058579996 -0.044720948 0.1330227 -0.008162087 -0.07866698 -0.075598665
-0.09854613 -0.07436693 -0.105919786 -0.08312082 -0.14014074 0.060736135 0.08854556 0.07777187
0.11095111 0.017023183 -0.028504236 0.09237531 -0.00013744198 0.028370922 -0.11635367 0.10152269
-0.009415931 0.0440485 -0.037911046 0.0039168433 -0.042819355 -0.028708357 -0.035597373 0.009688739
0.048894245 -0.06171189 0.029354593 0.011688269 -0.09813279 0.03755355 -0.08669859 -0.0033678485
-0.0030707074 -0.023395661 0.0992844 -0.027684027 0.0066082343 0.0034916243 -0.04816875 0.0053127343
0.010790837 0.07518754 0.06818015 -0.051998008 0.032173913 -0.083165355 -0.037788462 0.0026881217
-0.00463446 0.01561878 0.043956086 -0.061259452 0.021608949 -0.050443117 -0.06166221 0.03316509
0.028824667 -0.05930692 0.0561588 0.07703215 -0.043942336 -0.0018498038 -0.041415382 -0.022408668
-0.06446319 0.05395353 0.058998812 -0.057624824 0.042947084 -0.10388529 -0.075978704 0.002263169
0.04354521 -0.015921488 -0.009966349 -0.046688806 0.024559531 0.0012574256 0.08656347 -0.11236348
-0.10460436 0.024660943 -0.034050062 0.08203548 0.08297388 -0.009395341 -0.053224873 -0.059234377
0.04048918 0.055717587 0.04372326 0.063569956 -0.108641714 0.04878333 -0.092821546 0.004387288
0.042863026 -0.080034204 -0.06523323 -0.10545056 0.110569924 -0.0059189443 -0.009206836 -0.018581219
-0.005098398 0.034713395 0.030948551 -0.012444385 0.04262642 0.061916906 0.038055923 -0.028312823
-0.008545949 0.0005658414 0.06862565 0.0140564535 0.047371134 -0.044185296 0.02284798 -0.045226622
0.057343584 0.065732226 0.056374803 -0.031763628 -0.026299778 -0.08361776 0.11427541 -0.0015011528
0.060419552 0.07390966 0.00448793 0.018298687 -0.04370224 0.0641481 -0.069263615 -0.085424624
-0.092827536 -0.020976685 -0.028277198 -0.08252778 -0.100005694 0.009550845 0.034351617 -0.061763383
00000000: 8132 18bc a1c8 86bd 718b 80bd 471f 69bd
00000010: 381e b4bd 7536 a73d 2460 993d 6c1d 1fbd
00000020: 4d71 a53d afd4 16bd 2af4 f0bb 5f43 25bd
00000030: 87f9 ac3c 058c 75bd 88e2 343d 451c e0bd
00000040: 9e3a adbb e5b1 4abd df04 983c 0a49 c93d
00000050: ff5e e93b 07e2 1abd 8b1e 73bd 15f2 68bd
00000060: 57e5 1fbd 2dbc 7ebd 6132 ca3c 392e 42bc
00000070: 754b 3c3c d589 cb3d 80a9 39bd 2033 b3b9
00000080: da1d aabd 5696 503d 5621 3bbc 170d 81bb
00000090: 2e91 d23d 44fe b03c 54a0 0abd a470 a03d
000000a0: 8a55 a43b 769b 34bd 5956 e1bb 101a 733d
000000b0: 211d 243d 919f aa3c 5606 26bd 1c80 03bd
000000c0: 2ab8 dd3d b9e6 a53d efed efbd f6cf 3bbd
000000d0: 73bb 033d f311 ac3d 8ed4 84ba fb7f 823d
000000e0: 86d2 473d a632 d73d a52d e5bb 001f 7fbd
000000f0: 41be 04bd 903a b5bc 0b30 c5bd 088a e33a
00000100: 459c c1bc 2660 113d 8a09 f93b 0151 d83a
00000110: d684 17bd 95f2 debc 853e c83d 79e5 663c
00000120: 9f68 56bd 445c 753d 306e bf3c ad35 483d
00000130: 1ea1 9f3d 183c c5bc 2fa5 1cbc 2864 d3bd
00000140: 9569 2a3d ba86 0dbd 50e5 d9bd 2abb b7bc
00000150: 34ec 15bd 463d 493d af7b e1bd 84b0 8fbd
00000160: ff35 b5bd 3bd7 523d e96d 38bd c9a2 4a3d
00000170: 3c59 94bc fd87 59bc 1901 4e3d decf 8b3d
00000180: d53a 9cbd 80de 483d 3bbf 2f3d e42b 843d
00000190: 780b 343b 754c 203d 0202 4bbc f4a0 b03d
000001a0: f6f6 9ebd be33 babd 94f1 6fbd 502d 37bd
000001b0: 1a37 083e 46ba 05bc 271c a1bd 79d3 9abd
000001c0: 8ed2 c9bd b04d 98bd 79ec d8bd 403b aabd
000001d0: 0e81 0fbe 74c6 783d 6057 b53d dc46 9f3d
000001e0: 563a e33d 3474 8b3c b781 e9bc 442f bd3d
000001f0: 4d1e 10b9 236a e83c d54a eebd 21eb cf3d
00000200: 4745 1abc 336c 343d 9d48 1bbd dd58 803b
00000210: 5963 2fbd ca2d ebbc 8dce 11bd 84bd 1e3c
00000220: 5545 483d 9bc5 7cbd 0b79 f03c 2780 3f3c
00000230: d8f9 c8bd c0d1 193d 088f b1bd 1fb7 5cbb
00000240: ec3d 49bb 42a8 bfbc 9f55 cb3d 9dc9 e2bc
00000250: e389 d83b bcd3 643b 984c 45bd 7216 ae3b
00000260: 0dcc 303c edfb 993d 09a2 8b3d ddfb 54bd
00000270: cbc8 033d 9952 aabd 13c8 1abd 332b 303b
00000280: abdc 97bb e9e5 7f3c 4c0b 343d 31eb 7abd
00000290: 4005 b13c 719d 4ebd 8391 7cbd 1ed8 073d
000002a0: b521 ec3c d0eb 72bd c506 663d 08c3 9d3d
000002b0: e1fc 33bd 1e75 f2ba 2da3 29bd 6292 b7bc
000002c0: 4705 84bd 60fe 5c3d bda8 713d 0208 6cbd
000002d0: 48e9 2f3d d0c1 d4bd b99a 9bbd ad51 143b
000002e0: 765c 323d c86d 82bc e649 23bc c33c 3fbd
000002f0: 1231 c93c 34d0 a43a 3048 b13d d31e e6bd
00000300: d03a d6bd bf05 ca3c 1478 0bbd 3802 a83d
00000310: 36ee a93d ebee 19bc 5302 5abd bf9f 72bd
00000320: fbd7 253d 2038 643d 2917 333d f730 823d
00000330: 8c7f debd 07d1 473d 3919 bebd 3dc3 8f3b
00000340: 2491 2f3d f9e8 a3bd 0099 85bd 77f6 d7bd
00000350: 7c72 e23d b4f3 c1bb 45d8 16bc a437 98bc
00000360: 7610 a7bb a22f 0e3d d187 fd3c 89e3 4bbc
00000370: 0a99 2e3d 959c 7d3d 87e0 1b3d 4bf0 e7bc
00000380: 4f04 0cbc f954 143a 9b8b 8c3d 0a4d 663c
00000390: 3c08 423d a4fb 34bd b02b bb3c 8d3f 39bd
000003a0: 1be1 6a3d 9e9e 863d 44e9 663d 941a 02bd
000003b0: a272 d7bc ca3f abbd 3a09 ea3d 54c2 c4ba
000003c0: 7e7a 773d f35d 973d 7c0f 933b 21e7 953c
000003d0: 1f01 33bd 1460 833d 15da 8dbd 1bf3 aebd
000003e0: 5d1c bebd 4cd7 abbc 95a5 e7bc 5304 a9bd
000003f0: c9cf ccbd 267b 1c3c 48b4 0c3d 9afb 7cbd

lstm.weight_hh_l1 f4 [512, 128]
0.04001787 -0.030159568 -0.023814406 0.04328245 -0.056529626 0.038433064 -0.083634056 0.011325521
-0.023633355 -0.049657773 -0.0509349 0.05745133 -0.019702215 -0.046647146 -0.071229085 0.070160635
0.06591255 0.07105145 -0.019173417 0.04506369 -0.02835111 -0.08475991 0.07038389 -0.015964344
0.07755924 -0.04327303 0.03486405 0.05679749 0.040268056 -0.06712619 0.087007776 0.03519995
-0.01854328 0.052284837 -0.0036566881 0.03919534 0.0044979234 -0.033086494 0.008227214 0.0259556
0.023886207 -0.0075153476 0.046539742 -0.08829009 0.09001957 0.026903383 -0.07260394 0.070290565
-0.0013073223 0.029644046 -0.025878374 -0.05365399 0.049826942 0.02519906 -0.07624758 0.05932322
0.06921338 -0.03826466 -0.010487716 -0.032504525 -0.0021664102 0.0046523605 0.07365891 0.04781895
0.08408576 -0.07995379 0.060521178 -0.039025553 0.06505086 0.021609291 -0.06506297 0.07033646
-0.0602444 -0.07443042 0.05928262 0.034069777 -0.041934233 -0.0069511444 0.0001391213 -0.031456146
0.056498013 -0.04974412 0.040565517 -0.042722207 -0.06700613 0.011135865 -0.0472979 0.035520896
-0.087640084 -0.03382913 -0.05281976 -0.05923403 -0.045563288 0.007837217 -0.031119037 -0.051297482
0.00044396627 -0.048091125 0.0051198844 -0.043223735 0.031943455 -0.06497308 0.027281057 0.022133354
-0.055574134 -0.05569575 0.039032083 0.035077587 0.06986286 0.049599145 -0.03023157 -0.032618325
0.0061938725 -0.074205466 -0.007978175 -0.055997796 0.07377947 0.02362224 0.07839813 -0.02135576
0.046671752 -0.09522384 0.020651221 0.007845767 0.0888534 -0.015780192 0.05859515 -0.020895604
-0.08590249 -0.018192537 0.049053073 -0.037193365 0.09338044 0.044016816 0.07057843 -0.021769416
-0.039537672 -0.012893391 0.05958483 -0.11132651 0.05484476 0.08608192 0.05173356 -0.014998159
-0.11453506 -0.09728671 -0.079398446 0.02540444 -0.01299047 0.04571077 0.12342079 0.056215465
-0.1163909 0.015372309 -0.031100968 0.030441685 -0.014733279 -0.013486368 0.038125176 -0.0069319517
0.0876208 -0.027367458 0.021576934 0.038462624 0.09862261 0.07158756 -0.07467007 0.07245642
0.061290056 -0.040899053 -0.0062047406 0.10860251 -0.024112074 0.034905102 -0.051033743 -0.0305812
-0.08470901 0.06073383 0.055962175 -0.060193643 0.07947498 -0.0861407 0.0350015 0.036583293
0.006689581 -0.06697808 0.07783106 -0.007818418 0.05193459 0.049375307 0.11253274 0.007419164
0.030265372 -0.04114022 0.020315723 -0.038378093 -0.07195363 -0.07693227 -0.113888405 0.01194615
-0.0924896 0.01689629 0.10950674 -0.058981404 0.028441668 -0.046953596 0.006121505 -0.03568907
0.120868556 0.0289105 -0.03085908 -0.04783155 0.021472603 0.0008393819 0.035306096 0.1149565
-0.05182967 0.012220362 -0.054585367 -0.08573625 0.0886131 -0.0069060125 -0.07722196 0.030437887
-0.0015120062 -0.04724702 -0.08050005 -0.035137933 0.0104393745 -0.05694092 0.01992401 0.051907822
-0.0141487345 -0.05441889 -0.016253296 0.038713995 0.0043555503 -0.045678444 0.010212636 0.046968006
0.020169556 0.03830361 -0.01570835 0.07978091 0.040423673 -0.008652318 0.064841256 0.02921528
0.03164139 -0.09756223 -0.042040847 0.0013605136 0.036422994 -0.04751021 0.046865575 -0.030772641
00000000: c7e9 233d 3311 f7bc 6e16 c3bc f048 313d
00000010: 9c8b 67bd fd6b 1d3d 5548 abbd ae8e 393c
00000020: bd9a c1bc f365 4bbd 1da1 50bd 1652 6b3d
00000030: 8a66 a1bc 1411 3fbd 8ee0 91bd 61b0 8f3d
00000040: 29fd 863d 6c83 913d 9211 9dbc b494 383d
00000050: 9640 e8bc 9b96 adbd 6e25 903d a8c7 82bc
00000060: 61d7 9e3d 103f 31bd 9bcd 0e3d 7ca4 683d
00000070: 1ef0 243d 7579 89bd 2231 b23d d32d 103d
00000080: 14e8 97bc a028 563d 0ca5 6fbb 4b8b 203d
00000090: 5163 933b b485 07bd 70cb 063c d7a0 d43c
000000a0: 02ad c33c 4e43 f6bb 75a0 3e3d 6fd1 b4bd
000000b0: 2e5c b83d 7c64 dc3c 60b1 94bd 80f4 8f3d
000000c0: 755a abba 12d8 f23c e2fe d3bc 49c4 5bbd
000000d0: 5617 4c3d 426e ce3c b127 9cbd e8fc 723d
000000e0: bfbf 8d3d 67bb 1cbd abd4 2bbc 7723 05bd
000000f0: 55fa 0dbb d472 983b 7cda 963d cedd 433d
00000100: 2835 ac3d d0be a3bd 0ee5 773d 42d9 1fbd
00000110: 6339 853d f805 b13c bc3f 85bd 900c 903d
00000120: d5c2 76bd fa6e 98bd 55d2 723d c08c 0b3d
00000130: 3bc3 2bbd 6dc6 e3bb 17e1 1139 29d8 00bd
00000140: 766a 673d 7ec0 4bbd 0728 263d 7bfd 2ebd
00000150: 833a 89bd 3473 363c 71bb 41bd 5c7e 113d
00000160: a57c b3bd 6a90 0abd 8859 58bd 629f 72bd
00000170: 92a0 3abd ac67 003c 5aed febc 4f1d 52bd
00000180: 25c4 e839 33fb 44bd b4c4 a73b 5f0b 31bd
00000190: 24d7 023d 9b10 85bd 867c df3c 0251 b53c
000001a0: b4a1 63bd 3a21 64bd 1be0 1f3d 84ad 0f3d
000001b0: 4214 8f3d 7928 4b3d 33a8 f7bc cb9a 05bd
000001c0: f8f5 ca3b 09f9 97bd e4b6 02bc f25d 65bd
000001d0: b119 973d 6e83 c13c 338f a03d 46f2 aebc
000001e0: e12a 3f3d b704 c3bd c02c a93c 888b 003c
000001f0: c5f8 b53d 7645 81bc 7801 703d 422d abbc
00000200: a5ed afbd 8408 95bc e0eb 483d 1258 18bd
00000210: 3e3e bf3d fa4a 343d 6d8b 903d c655 b2bc
00000220: 41f2 21bd cd3e 53bc 390f 743d 27ff e3bd
00000230: e6a4 603d b84b b03d 92e6 533d d7ba 75bc
00000240: 5c91 eabd 413e c7bd a79b a2bd f91c d03c
00000250: fbd5 54bc 373b 3b3d 0ac4 fc3d 3042 663d
00000260: 5a5e eebd 23dc 7b3c 75c7 febc d760 f93c
00000270: da63 71bc edf5 5cbc 2529 1c3d 6d25 e3bb
00000280: 8972 b33d b831 e0bc 1cc2 b03c fc8a 1d3d
00000290: a7fa c93d 809c 923d 9fec 98bd 0864 943d
000002a0: 480b 7b3d c485 27bd 2351 cbbb fe6a de3d
000002b0: af86 c5bc a7f8 0e3d c208 51bd 6d85 fabc
000002c0: eb7b adbd 09c4 783d 9838 653d 9c8d 76bd
000002d0: c7c3 a23d 896a b0bd bc5d 0f3d 5dd8 153d
000002e0: 4634 db3b ce2b 89bd e465 9f3d d218 00bc
000002f0: 5db9 543d c33d 4a3d 9177 e63d 751c f33b
00000300: 16ef f73c a682 28bd 296d a63c 5932 1dbd
00000310: 6d5c 93bd aa8e 9dbd 533e e9bd c9b9 433c
00000320: 306b bdbd 176a 8a3c 1245 e03d 7c96 71bd
00000330: 80fe e83c 6a52 40bd e896 c83b b42e 12bd
00000340: ef89 f73d b7d5 ec3c 2ecc fcbc 04eb 43bd
00000350: 50e7 af3c f709 5c3a 209d 103d 506e eb3d
00000360: 594b 54bd ea37 483c e894 5fbd 7d96 afbd
00000370: c97a b53d d54b e2bb 8c26 9ebd e058 f93c
00000380: 822e c6ba 1786 41bd 36dd a4bd cbec 0fbd
00000390: e909 2b3c e23a 69bd ad37 a33c 4c9d 543d
000003a0: 18d0 67bc 58e6 5ebd a225 85bc 9192 1e3d
000003b0: 01b9 8e3b 5219 3bbd e652 273c 8661 403d
000003c0: a03a a53c 3fe4 1c3d ccae 80bc 2c64 a33d
000003d0: 4b93 253d 74c2 0dbc 7ecb 843d e254 ef3c
000003e0: 679a 013d b5ce c7bd 0633 2cbd 4353 b23a
000003f0: 4730 153d 119a 42bd 1ef6 3f3d e816 fcbc

lstm.bias_ih_l1 f4 [512]
0.023136372 0.0007172063 0.042095903 0.05027201 -0.0829318 -0.004755507 -0.042697135 0.085898295
-0.032232635 -0.04905127 -0.079157494 0.07464869 -0.020829089 -0.15284596 0.068949245 0.010025611
-0.012159358 0.00023120682 -0.027958978 0.04587919 -0.016823277 0.017985033 0.011083084 0.019514522
-0.054480057 -0.0010462273 0.016086765 0.14798506 0.002679746 -0.021946624 0.054310374 -0.02560434
-0.031708334 -0.035585023 -0.01823117 0.053176902 -0.070605695 0.031677317 0.022476206 -0.0313003
0.036937024 0.08431995 0.02992695 -0.13192266 0.010375834 -0.060569905 -0.023494631 0.018010994
-0.03710978 0.08574071 0.03996337 -0.062238034 -0.045578443 -0.05660207 0.028268475 -0.0431144
-0.072933495 0.012140353 -0.024940765 -0.015014459 0.011166765 0.004474047 0.09750887 -0.07698399
0.03025779 -0.060286064 0.078674786 0.029938344 0.053508714 0.00022614923 0.10510775 -0.011764509
0.006569417 0.04908089 -0.12007811 0.063954584 -0.056456633 0.07362289 -0.051848322 -0.027314018
-0.055566058 0.02380658 -0.027990513 0.023056082 -0.016415928 0.097192705 0.011430729 -0.033490364
0.018164324 -0.05876622 0.031856935 -0.02403735 -0.02530404 -0.065711804 0.019471116 -0.0006849116
-0.04327408 0.034006 -0.06999054 -0.029996408 -0.021242796 -0.06990209 0.06225808 0.07244115
-0.0384546 -0.061053902 -0.13764837 -0.0015439114 -0.028984897 -0.05500252 -0.0033799014 -0.050101154
-0.07121006 0.007834603 -0.023023242 0.08236836 -0.07703641 -0.023765499 -0.02041568 0.08138909
0.033294417 -0.07584448 0.091094494 0.056109432 0.011619697 0.026412409 0.1001958 -0.08706417
-0.046938684 -0.13740835 -0.036106687 -0.083622575 -0.06611511 -0.0670817 0.01243332 0.04500283
0.028874828 -0.054123692 0.045752313 0.037534013 -0.045532722 -0.071495794 -0.09683157 -0.054642543
-0.031155048 -0.078049034 0.048212335 0.0021562164 0.020612698 -0.0038573085 0.015052417 0.033281416
0.07655948 -0.04079281 -0.07608215 -0.029734207 -0.02668358 0.051144842 -0.10393691 -0.066472374
0.0667372 0.062461562 0.030402705 -0.06843531 -0.008674485 -0.019487275 -0.03108357 0.030532302
-0.07627198 -0.052216355 0.040383216 -0.06672276 -0.045979634 -0.018666718 0.008474565 0.044882573
0.04810625 -0.021786531 -0.05079366 -0.06584584 -0.036976483 0.029869042 0.02241928 -0.106542535
-0.078007825 0.016860086 0.010572728 0.08117088 0.02172871 -0.042701613 0.038465988 -0.06362742
-0.014136795 0.0722581 -0.07442865 -0.064949565 -0.058159195 -0.027901633 -0.03048296 0.039440095
-0.034360763 -0.013471827 -0.11023085 0.03015875 0.04514697 0.062062263 -0.032889295 0.056454986
-0.07580733 -0.044489056 -0.07294626 -0.0017026402 -0.08807664 0.005296254 -0.041502062 -0.07490283
-0.08571352 -0.024184301 0.056251824 0.08241651 0.07129843 -0.0034829106 0.04133681 0.04403971
-0.033076733 -0.040008917 0.0032428158 -0.006279146 -0.021937419 -0.05548801 -0.054798093 0.054770313
-0.029863855 -0.024893926 -0.10599317 0.033977713 -0.06928233 -0.08270049 -0.071772866 0.0793701
-0.06312909 0.01785193 -0.005116345 0.08428167 -0.09932992 -0.06960958 0.04762519 -0.03779394
-0.035136245 0.06493994 -0.022838153 -0.01569201 0.03456798 0.017809654 -0.0421405 -0.08386287
00000000: 7d88 bd3c e602 3c3a c16c 2c3d 06ea 4d3d
00000010: 26d8 a9bd 16d4 9bbb 31e3 2ebd 72eb af3d
00000020: 5e06 04bd fce9 48bd 531d a2bd 6ae1 983d
00000030: c4a1 aabc a783 1cbe 4335 8d3d 7642 243c
00000040: 0b38 47bc 1c70 7239 3a0a e5bc d1eb 3b3d
00000050: f8d0 89bc 5955 933c d395 353c ebdc 9f3c
00000060: 7b26 5fbd 9021 89ba 64c8 833c 6589 173e
00000070: ad9e 2f3b 68c9 b3bc 8e74 5e3d 31c0 d1bc
00000080: 99e0 01bd 9ac1 11bd 8959 95bc 06d0 593d
00000090: b899 90bd 13c0 013d 0520 b83c be34 00bd
000000a0: 474b 173d f0af ac3d 5d29 f53c bc16 07be
000000b0: 67ff 293c 2618 78bd d077 c0bc cb8b 933c
000000c0: 6d00 18bd d398 af3d a1b0 233d 4fed 7ebd
000000d0: 76b0 3abd 92d7 67bd 4a93 e73c ba98 30bd
000000e0: 285e 95bd 55e8 463c 9350 ccbc 35ff 75bc
000000f0: cff4 363c 079b 923b bbb2 c73d c8a9 9dbd
00000100: 2fdf f73c 85ee 76bd 3f20 a13d 4241 f53c
00000110: f42b 5b3d 7922 6d39 bb42 d73d edbf 40bc
00000120: 4444 d73b 0b09 493d 83eb f5bd 9ffa 823d
00000130: 123f 67bd 99c7 963d e85e 54bd a6c1 dfbc
00000140: 3c99 63bd 0406 c33c 5c4c e5bc 1ce0 bc3c
00000150: b27a 86bc f80c c73d f447 3b3c 312d 09bd
00000160: 59cd 943c d9b4 70bd 6b7c 023d fae9 c4bc
00000170: 6b4a cfbc e993 86bd e481 9f3c a48b 33ba
00000180: 2940 31bd e049 0b3d 3357 8fbd 07bb f5bc
00000190: 5f05 aebc d428 8fbd 5402 7f3d 075c 943d
000001a0: 9282 1dbd a813 7abd b2f3 0cbe 125d caba
000001b0: bc71 edbc 534a 61bd 5681 5dbb de36 4dbd
000001c0: 94d6 91bd b55c 003c 3d9b bcbc beb0 a83d
000001d0: 44c5 9dbd ddaf c2bc c93e a7bc 53af a63d
000001e0: ba5f 083d 5a54 9bbd c08f ba3d 01d3 653d
000001f0: 8b60 3e3c d65e d83c 7533 cd3d b34e b2bd
00000200: c742 40bd c6b4 0cbe 9be4 13bd 5042 abbd
00000210: 5c67 87bd 2162 89bd 20b5 4b3c e354 383d
00000220: e78a ec3c ceb0 5dbd c766 3b3d 44bd 193d
00000230: 8580 3abd 636c 92bd a14f c6bd dcd0 5fbd
00000240: df38 ffbc 2cd8 9fbd 4c7a 453d 4f4f 0d3b
00000250: f6db a83c e6ca 7cbb 6a9e 763c 1852 083d
00000260: 37cb 9c3d 5d16 27bd f5d0 9bbd 2795 f3bc
00000270: 8697 dabc 417d 513d e0dc d4bd ab22 88bd
00000280: 83ad 883d b2d7 7f3d 180f f93c d027 8cbd
00000290: 6d1f 0ebc c7a3 9fbc f9a2 febc e11e fa3c
000002a0: 7c34 9cbd d1e0 55bd df68 253d f1a5 88bd
000002b0: 2455 3cbd f2ea 98bc e7d8 0a3c cad6 373d
000002c0: 0f0b 453d ab79 b2bc 030d 50bd 2fda 86bd
000002d0: a774 17bd ecaf f43c a3a8 b73c f932 dabd
000002e0: 91c2 9fbd 2a1e 8a3c 3c39 2d3c eb3c a63d
000002f0: 6800 b23c e3e7 2ebd 838e 1d3d 184f 82bd
00000300: 049e 67bc 0efc 933d 0c6e 98bd 4704 85bd
00000310: 5638 6ebd f791 e4bc 67b7 f9bc f08b 213d
00000320: dfbd 0cbd f0b8 5cbc b6c0 e1bd 7c0f f73c
00000330: 07ec 383d 0035 7e3d edb6 06bd 583d 673d
00000340: e040 9bbd 283a 36bd d964 95bd 202b dfba
00000350: 8761 b4bd 338c ad3b 11fe 29bd a866 99bd
00000360: 928a afbd 281e c6bc 5068 663d fdc9 a83d
00000370: e904 923d 8b41 64bb c950 293d fc62 343d
00000380: 787b 07bd 64e0 23bd 6c85 543b 4bc1 cdbb
00000390: 1ab6 b3bc 6547 63bd f773 60bd d656 603d
000003a0: 0ba5 f4bc 59ee cbbc f212 d9bd 372c 0b3d
000003b0: e5e3 8dbd e05e a9bd a7fd 92bd ca8c a23d
000003c0: d349 81bd 363e 923c 03a7 a7bb de9b ac3d
000003d0: 7c6d cbbd 788f 8ebd a212 433d d2cd 1abd
000003e0: 06eb 0fbd 3bff 843d 1417 bbbc 888c 80bc
000003f0: 2797 0d3d 8de5 913c 849b 2cbd 4cc0 abbd
